Model: "functional_182"
┏━━━━━━━━━━━━━━━━━━━━━┳━━━━━━━━━━━━━━━━━━━┳━━━━━━━━━━━━┳━━━━━━━━━━━━━━━━━━━┓
┃ Layer (type)        ┃ Output Shape      ┃    Param # ┃ Connected to      ┃
┡━━━━━━━━━━━━━━━━━━━━━╇━━━━━━━━━━━━━━━━━━━╇━━━━━━━━━━━━╇━━━━━━━━━━━━━━━━━━━┩
│ input_layer_6       │ (None, 10)        │          0 │ -                 │
│ (InputLayer)        │                   │            │                   │
├─────────────────────┼───────────────────┼────────────┼───────────────────┤
│ dense_149 (Dense)   │ (None, 256)       │      2,816 │ input_layer_6[0]… │
├─────────────────────┼───────────────────┼────────────┼───────────────────┤
│ batch_normalizatio… │ (None, 256)       │      1,024 │ dense_149[0][0]   │
│ (BatchNormalizatio… │                   │            │                   │
├─────────────────────┼───────────────────┼────────────┼───────────────────┤
│ dropout_119         │ (None, 256)       │          0 │ batch_normalizat… │
│ (Dropout)           │                   │            │                   │
├─────────────────────┼───────────────────┼────────────┼───────────────────┤
│ dense_150 (Dense)   │ (None, 256)       │     65,792 │ dropout_119[0][0] │
├─────────────────────┼───────────────────┼────────────┼───────────────────┤
│ batch_normalizatio… │ (None, 256)       │      1,024 │ dense_150[0][0]   │
│ (BatchNormalizatio… │                   │            │                   │
├─────────────────────┼───────────────────┼────────────┼───────────────────┤
│ dropout_120         │ (None, 256)       │          0 │ batch_normalizat… │
│ (Dropout)           │                   │            │                   │
├─────────────────────┼───────────────────┼────────────┼───────────────────┤
│ dense_151 (Dense)   │ (None, 256)       │     65,792 │ dropout_120[0][0] │
├─────────────────────┼───────────────────┼────────────┼───────────────────┤
│ batch_normalizatio… │ (None, 256)       │      1,024 │ dense_151[0][0]   │
│ (BatchNormalizatio… │                   │            │                   │
├─────────────────────┼───────────────────┼────────────┼───────────────────┤
│ add_15 (Add)        │ (None, 256)       │          0 │ batch_normalizat… │
│                     │                   │            │ dropout_119[0][0] │
├─────────────────────┼───────────────────┼────────────┼───────────────────┤
│ dropout_121         │ (None, 256)       │          0 │ add_15[0][0]      │
│ (Dropout)           │                   │            │                   │
├─────────────────────┼───────────────────┼────────────┼───────────────────┤
│ dense_152 (Dense)   │ (None, 128)       │     32,896 │ dropout_121[0][0] │
├─────────────────────┼───────────────────┼────────────┼───────────────────┤
│ activation_11       │ (None, 128)       │          0 │ dense_152[0][0]   │
│ (Activation)        │                   │            │                   │
├─────────────────────┼───────────────────┼────────────┼───────────────────┤
│ batch_normalizatio… │ (None, 128)       │        512 │ activation_11[0]… │
│ (BatchNormalizatio… │                   │            │                   │
├─────────────────────┼───────────────────┼────────────┼───────────────────┤
│ dropout_122         │ (None, 128)       │          0 │ batch_normalizat… │
│ (Dropout)           │                   │            │                   │
├─────────────────────┼───────────────────┼────────────┼───────────────────┤
│ dense_153 (Dense)   │ (None, 128)       │     16,512 │ dropout_122[0][0] │
├─────────────────────┼───────────────────┼────────────┼───────────────────┤
│ batch_normalizatio… │ (None, 128)       │        512 │ dense_153[0][0]   │
│ (BatchNormalizatio… │                   │            │                   │
├─────────────────────┼───────────────────┼────────────┼───────────────────┤
│ add_16 (Add)        │ (None, 128)       │          0 │ batch_normalizat… │
│                     │                   │            │ dense_152[0][0]   │
├─────────────────────┼───────────────────┼────────────┼───────────────────┤
│ dropout_123         │ (None, 128)       │          0 │ add_16[0][0]      │
│ (Dropout)           │                   │            │                   │
├─────────────────────┼───────────────────┼────────────┼───────────────────┤
│ dense_154 (Dense)   │ (None, 128)       │     16,512 │ dropout_123[0][0] │
├─────────────────────┼───────────────────┼────────────┼───────────────────┤
│ activation_12       │ (None, 128)       │          0 │ dense_154[0][0]   │
│ (Activation)        │                   │            │                   │
├─────────────────────┼───────────────────┼────────────┼───────────────────┤
│ batch_normalizatio… │ (None, 128)       │        512 │ activation_12[0]… │
│ (BatchNormalizatio… │                   │            │                   │
├─────────────────────┼───────────────────┼────────────┼───────────────────┤
│ dropout_124         │ (None, 128)       │          0 │ batch_normalizat… │
│ (Dropout)           │                   │            │                   │
├─────────────────────┼───────────────────┼────────────┼───────────────────┤
│ dense_155 (Dense)   │ (None, 128)       │     16,512 │ dropout_124[0][0] │
├─────────────────────┼───────────────────┼────────────┼───────────────────┤
│ batch_normalizatio… │ (None, 128)       │        512 │ dense_155[0][0]   │
│ (BatchNormalizatio… │                   │            │                   │
├─────────────────────┼───────────────────┼────────────┼───────────────────┤
│ add_17 (Add)        │ (None, 128)       │          0 │ batch_normalizat… │
│                     │                   │            │ dense_154[0][0]   │
├─────────────────────┼───────────────────┼────────────┼───────────────────┤
│ dropout_125         │ (None, 128)       │          0 │ add_17[0][0]      │
│ (Dropout)           │                   │            │                   │
├─────────────────────┼───────────────────┼────────────┼───────────────────┤
│ dense_156 (Dense)   │ (None, 128)       │     16,512 │ dropout_125[0][0] │
├─────────────────────┼───────────────────┼────────────┼───────────────────┤
│ activation_13       │ (None, 128)       │          0 │ dense_156[0][0]   │
│ (Activation)        │                   │            │                   │
├─────────────────────┼───────────────────┼────────────┼───────────────────┤
│ batch_normalizatio… │ (None, 128)       │        512 │ activation_13[0]… │
│ (BatchNormalizatio… │                   │            │                   │
├─────────────────────┼───────────────────┼────────────┼───────────────────┤
│ dropout_126         │ (None, 128)       │          0 │ batch_normalizat… │
│ (Dropout)           │                   │            │                   │
├─────────────────────┼───────────────────┼────────────┼───────────────────┤
│ dense_157 (Dense)   │ (None, 128)       │     16,512 │ dropout_126[0][0] │
├─────────────────────┼───────────────────┼────────────┼───────────────────┤
│ batch_normalizatio… │ (None, 128)       │        512 │ dense_157[0][0]   │
│ (BatchNormalizatio… │                   │            │                   │
├─────────────────────┼───────────────────┼────────────┼───────────────────┤
│ add_18 (Add)        │ (None, 128)       │          0 │ batch_normalizat… │
│                     │                   │            │ dense_156[0][0]   │
├─────────────────────┼───────────────────┼────────────┼───────────────────┤
│ dropout_127         │ (None, 128)       │          0 │ add_18[0][0]      │
│ (Dropout)           │                   │            │                   │
├─────────────────────┼───────────────────┼────────────┼───────────────────┤
│ dense_158 (Dense)   │ (None, 64)        │      8,256 │ dropout_127[0][0] │
├─────────────────────┼───────────────────┼────────────┼───────────────────┤
│ dense_159 (Dense)   │ (None, 1)         │         65 │ dense_158[0][0]   │
└─────────────────────┴───────────────────┴────────────┴───────────────────┘
 Total params: 786,821 (3.00 MB)
 Trainable params: 261,249 (1020.50 KB)
 Non-trainable params: 3,072 (12.00 KB)
 Optimizer params: 522,500 (1.99 MB)

